models/hybrid_adv_ckpt.pth (torch, 742799 bytes, 12 tensors)

feature_extractor.0.weight f4 [32, 6, 3]
0.051117264 0.22818084 -0.07341027 -0.14681888 0.3736573 -0.47230572 -0.3175315 0.09370793
-0.05246068 0.19183016 0.44299084 -0.25124714 -0.03035533 0.06371406 -0.07185854 -0.0078050992
0.25728178 0.2351555 -0.2626848 -0.12681377 0.0040590633 0.03347395 -0.24032632 0.20493598
0.051508754 -0.039802313 0.21517935 0.22524811 0.15889972 -0.12637395 0.23224688 0.046074238
-0.008334445 0.06852494 0.123571135 -0.20984608 0.13702253 -0.077741906 0.0020302653 -0.2548856
0.15029591 0.33166227 0.16795038 0.19229864 0.10272698 -0.23271084 0.09542604 0.15737846
0.06651128 -0.14965189 -0.04368852 -0.4193816 -0.39705792 -0.33581752 -0.33065704 -0.029157879
0.059402034 0.038604055 0.1415001 -0.30195972 -0.30227217 0.13276249 0.0845463 -0.0068393457
-0.057088524 0.11766672 0.0045025423 -0.10786614 -0.03815675 -0.0487692 0.16210201 0.2664754
-0.2691056 0.1651404 -0.20333777 0.21870364 -0.1213739 0.12240736 0.024580257 -0.18102999
0.1829486 -0.09083836 0.19473444 0.26847696 -0.0691268 0.20374885 0.02656649 0.10794528
-0.014658755 0.09330709 -0.12404225 -0.16897608 0.1466082 0.22088078 -0.35003668 -0.07547715
0.2842151 0.0005281413 0.19438833 0.1049802 -0.30670393 -0.16384436 -0.07633704 -0.05316846
0.09019951 -0.048585564 0.2041371 0.19020094 0.27078047 0.16189612 -0.16992772 -0.2221087
0.030650098 0.0763567 0.208835 -0.15490663 -0.06324271 -0.19289406 0.09272952 0.11682733
0.02769171 0.1441473 0.05761204 0.20022881 0.004466763 -0.02183941 -0.15902025 -0.16669789
0.11894295 -0.2668057 0.04704067 0.03548963 -0.14827336 -0.13951936 -0.068637535 0.008199267
0.16027585 -0.10750859 -0.13608159 0.20946455 -0.108543 0.031868163 -0.23038062 0.1972953
-0.1913766 0.2438103 -0.14600408 0.3216022 0.18815957 0.18289164 -0.22092703 0.24065642
0.17545344 0.05968834 0.13803327 0.24103288 0.028275196 -0.047703013 -0.17945138 -0.04321189
-0.02921409 0.20673114 0.19606072 0.37436724 0.047694072 -0.094673075 0.12459239 0.112008095
-0.16301411 0.16175121 0.09563652 -0.016725076 -0.1909885 -0.030774409 0.117292576 -0.01185434
-0.21943595 -0.0071891397 0.22334082 -0.14129892 0.28815854 0.105184115 0.05121416 0.06330358
0.1319589 -0.174443 -0.17884643 -0.21296549 0.05397899 0.003444034 0.2114215 -0.19136271
0.24872829 0.108993925 -0.16282462 0.05194947 0.11053399 0.058095552 -0.032979444 0.16411985
0.1313329 -0.005210656 0.05293727 0.06732924 0.023370724 0.115339264 0.012512197 0.17804766
0.11962874 0.19277453 -0.030552754 0.087451175 0.18479681 -0.1679354 -0.15333635 -0.09225294
0.08379332 0.12364655 -0.14940141 0.215532 -0.10182403 -0.11135968 0.19227685 0.15289982
-0.02301385 0.07913853 0.024455378 0.19698517 -0.16213943 0.21910298 0.19710472 0.20845833
0.059687965 0.016584102 -0.08506119 -0.020908946 -0.16666372 -0.113249846 0.009803125 -0.14802252
-0.20827524 -0.1670254 -0.24221727 -0.0009185563 0.113126636 0.21811178 -0.085779004 -0.18282251
0.027882753 -0.11560558 0.1447101 0.07578913 -0.08586852 0.12660109 -0.11136279 0.28912708
00000000: 5660 513d 3da8 693e 2058 96bd b057 16be
00000010: 0250 bf3e 0ed2 f1be 7d93 a2be f1e9 bf3d
00000020: 03e1 56bd 206f 443e b2cf e23e 77a3 80be
00000030: beab f8bc 847c 823d 922a 93bd ebc1 ffbb
00000040: 70ba 833e 9acc 703e 9f7e 86be 78db 01be
00000050: e401 853b fb1b 093d 1a18 76be bdda 513e
00000060: d8fa 523d c007 23bd fa57 5c3e 71a7 663e
00000070: 9cb6 223e 2c68 01be 20d2 6d3e 57b8 3c3d
00000080: 328d 08bc ce56 8c3d dd12 fd3d e4e1 56be
00000090: a24f 0c3e 2637 9fbd 330e 053b 5e80 82be
000000a0: 2ce7 193e a3cf a93e 2ffb 2b3e efe9 443e
000000b0: 8662 d23d c04b 6ebe ba6e c33d d227 213e
000000c0: 1137 883d 583e 19be bcf2 32bd 2fb9 d6be
000000d0: 2d4b cbbe 46f0 abbe e14b a9be 81dc eebc
000000e0: 8c4f 733d 491f 1e3d 67e5 103e 779a 9abe
000000f0: 6bc3 9abe e4f2 073e 9c26 ad3d 971c e0bb
00000100: a8d5 69bd 40fb f03d 108a 933b ece8 dcbd
00000110: 414a 1cbd 36c2 47bd 12fe 253e 776f 883e
00000120: 36c8 89be 911a 293e c737 50be d9f3 5f3e
00000130: e192 f8bd b6b0 fa3d 895c c93c ed5f 39be
00000140: e156 3b3e 7609 babd 7768 473e d075 893e
00000150: 5a92 8dbd 8aa3 503e f8a1 d93c 6a12 dd3d
00000160: 462b 70bc ca17 bf3d dd09 febd 1108 2dbe
00000170: 7620 163e 922e 623e 0238 b3be c493 9abd
00000180: a484 913e f672 0a3a bc0d 473e dcff d63d
00000190: 4c08 9dbe d1c6 27be 9856 9cbd 2cc7 59bd
000001a0: 85ba b83d a801 47bd 5109 513e 09c4 423e
000001b0: bda3 8a3e 19c8 253e 8801 2ebe 7770 63be
000001c0: ea15 fb3c e760 9c3d d8d8 553e d89f 1ebe
000001d0: 6585 81bd 0586 45be f9e8 bd3d 2b43 ef3d
000001e0: bad9 e23c 5a9b 133e 9afa 6b3d c808 4d3e
000001f0: ed5d 923b 90e8 b2bc 34d6 22be dab2 2abe
00000200: 5d98 f33d c29a 88be b8ad 403d 935d 113d
00000210: f9d4 17be 2ade 0ebe d691 8cbd 3856 063c
00000220: 5a1f 243e 772d dcbd f958 0bbe e07d 563e
00000230: cb4b debd 3188 023d e6e8 6bbe c707 4a3e
00000240: 3af8 43be 68a9 793e 1882 15be 0ba9 a43e
00000250: e7ac 403e f247 3b3e b23a 62be a36e 763e
00000260: 11aa 333e c37b 743d 9858 0d3e 53d1 763e
00000270: 62a1 e73c 3c64 43bd 1ac2 37be f3fe 30bd
00000280: 6352 efbc 54b1 533e 24c4 483e 10ad bf3e
00000290: dc5a 433d f5e3 c1bd 4c2a ff3d 8064 e53d
000002a0: 2ced 26be 1ca2 253e 14dd c33d 0703 89bc
000002b0: 7d92 43be 9d1a fcbc 1737 f03d b538 42bc
000002c0: d1b3 60be e092 ebbb 75b3 643e aab0 10be
000002d0: 8489 933e c56a d73d f0c5 513d 4fa5 813d
000002e0: 3c20 073e 30a1 32be 8523 37be a013 5abe
000002f0: 1319 5d3d 4db5 613b e17e 583e 96f4 43be
00000300: a1b2 7e3e 3538 df3d 7fbb 26be f8c8 543d
00000310: a55f e23d 9af5 6d3d 7415 07bd 090f 283e
00000320: 227c 063e 27be aabb c0d4 583d eae3 893d
00000330: f673 bf3c fe36 ec3d f5ff 4c3c 2052 363e
00000340: eaff f43d b066 453e c549 fabc 9a19 b33d
00000350: 603b 3d3e 42f7 2bbe 3404 1dbe 1cef bcbd
00000360: d59b ab3d 673a fd3d affc 18be 6cb4 5c3e
00000370: 1e89 d0bd 8b10 e4bd 39e4 443e c591 1c3e
00000380: 8b87 bcbc 6213 a23d a556 c83c 7bb6 493e
00000390: e107 26be 885c 603e d2d5 493e 1a76 553e
000003a0: 5e7b 743d 62db 873c 9034 aebd 3d49 abbc
000003b0: e5a9 2abe 89ef e7bd 499d 203c 3793 17be
000003c0: 1b46 55be b508 2bbe ce07 78be 45cb 70ba
000003d0: f0ae e73d b258 5f3e e7ac afbd d335 3bbe
000003e0: 5f6a e43c 9ec2 ecbd e22e 143e 5537 9b3d
000003f0: d6db afbd b7a3 013e 2d12 e4bd 7708 943e

feature_extractor.0.bias f4 [32]
-0.13343574 0.2292054 0.14733912 -0.039400253 -0.14199795 0.11201666 -0.13460961 -0.22554968
-0.115644746 -0.09771677 -0.15084442 0.1375886 0.29152617 0.29477158 0.018049113 -0.15092003
-0.019241193 -0.19804066 0.057915177 -0.042071115 0.114959165 0.2884983 -0.21382064 0.18048467
0.30413833 0.04033534 -0.007700381 0.039495256 -0.07196506 0.22549945 -0.10399814 0.04607526
00000000: 61a3 08be d2b4 6a3e 11e0 163e 2962 21bd
00000010: e967 11be fe68 e53d 1ad7 09be 7ff6 66be
00000020: 27d7 ecbd bb1f c8bd f676 1abe 07e4 0c3e
00000030: eb42 953e 4dec 963e bcdb 933c c88a 1abe
00000040: b59f 9dbc 2ccb 4abe 7738 6d3d c352 2cbd
00000050: b66f eb3d 0db6 933e ccf3 5abe f9d0 383e
00000060: 05b8 9b3e ab36 253d 7a53 fcbb c7c5 213d
00000070: 6b62 93bd 54e9 663e fafc d4bd 69b9 3c3d

feature_extractor.2.weight f4 [64, 32, 3]
-0.19868113 -0.0847624 -0.054471537 0.09579988 0.081469774 0.07593025 0.01653679 -0.06366511
-0.0139135355 0.059408724 0.105532736 0.024833918 0.045373417 -0.027445428 0.077546194 -0.06631797
-0.03407321 -0.07145609 -0.030451162 -0.053035855 0.092421114 0.054803103 0.107521415 0.022024838
0.053794257 -0.0536279 -0.15485938 -0.11465525 0.073342524 0.10154573 0.06122142 -0.08242362
-0.041284673 0.009743782 -0.061872333 0.10136287 -0.046513043 -0.09342553 0.08577829 0.053833738
0.036849197 -0.026322985 -0.08570106 -0.05913595 0.022537313 0.031241436 -0.038581226 0.060402736
0.024237024 0.070284866 -0.034655835 -0.073139325 -0.007809454 0.053794537 -0.039254226 0.065241285
0.09981666 0.07737576 0.049494784 -0.053264998 -0.0063342527 -0.0021936435 0.020494185 -0.1026261
5.158546e-05 -0.06636867 0.025654985 0.074828945 0.08654767 0.04181845 0.080010034 -0.054918595
-0.024792356 -0.05156648 -0.02769035 0.15433206 0.04031265 -0.09302743 0.10137888 0.10707195
-0.019257624 0.0065680253 -0.047041517 -0.02580702 -0.047795214 0.014365721 -0.045364242 0.055375203
0.021034159 -0.0061897244 -0.16843982 -0.0077415137 -0.08771162 0.06465402 0.021765703 0.060106046
-0.047481257 -0.040226042 -0.18361379 0.123752624 -0.09568058 0.0693436 0.089262694 -0.12627359
-0.082229204 -0.07935708 0.05649988 0.015075416 0.056726806 0.111094326 -0.0034951796 0.027658004
-0.17607757 -0.09586833 0.040497344 0.08583512 0.060401753 -8.7843415e-05 0.046537694 -0.06687762
-0.10416209 -0.14481409 0.020441022 0.051817372 0.007155864 -0.13598228 -0.041467626 -0.07548815
-0.07712228 0.047252785 -0.05067707 -0.047781058 0.03427431 0.04927957 0.015400481 -0.004465098
0.047700185 0.063377015 0.026923543 0.10855825 0.024243027 0.09007863 0.042838722 0.09312153
0.045146003 -0.073259614 0.05438156 -0.061958097 0.02082984 0.046095364 -0.075660475 -0.0616974
-0.013716203 0.0433856 0.019351123 -0.1142223 -0.08371229 -0.017942986 -0.11640048 -0.051157326
0.096833095 -0.027946418 -0.093426436 0.082080886 0.11323458 0.02634407 -0.10799467 0.021013945
0.09210269 -0.22317702 -0.052194517 -0.021826306 0.022797003 -0.17340837 0.08461725 -0.1295041
0.0057955636 0.052723143 0.035553876 -0.23648265 -0.13936071 -0.121311255 -0.029291596 -0.07204824
0.06548149 -0.028601103 0.07263271 -0.11053 -0.19149707 0.10816988 -0.030211197 0.09136754
-0.021224441 -0.0006971207 -0.13226233 0.027299857 0.013501962 0.14198886 0.060433883 0.03287568
-0.101150826 -0.11517953 -0.03737078 0.07648613 0.041845877 0.055458084 0.029042326 0.06352264
-0.1723918 0.06649272 0.04668846 0.03510838 0.041117985 -0.10136799 0.027992574 -0.025784979
0.0013149787 -0.08895415 -0.071692616 -0.1578986 -0.15102959 -0.11471911 0.04614364 -0.043378178
-0.024317125 0.02778485 -0.041733246 0.086956 0.0039530536 -0.07599881 0.065488696 0.06185456
0.058304906 0.12557207 -0.08236411 0.03858201 -0.10270316 -0.05611342 0.016151983 -0.08029589
0.03826269 -0.07659588 -0.11510668 0.002054275 -0.04108102 0.034054697 0.060643353 -0.0016970254
-0.07540634 -0.031458415 -0.07680689 -0.08955909 -0.02440289 0.03606328 -0.04192506 0.03470263
00000000: 1173 4bbe e997 adbd 8c1d 5fbd ba32 c43d
00000010: a0d9 a63d 5281 9b3d 2a78 873c da62 82bd
00000020: 99f5 63bc 9056 733d 8c21 d83d 8070 cb3c
00000030: 7ad9 393d 3cd5 e0bc 8ad0 9e3d b7d1 87bd
00000040: 5a90 0bbd 9257 92bd b774 f9bc 203c 59bd
00000050: 4847 bd3d 3879 603d 3034 dc3d 6f6d b43c
00000060: 5e57 5c3d eea8 5bbd 7593 1ebe 5fd0 eabd
00000070: 9b34 963d 35f7 cf3d 50c3 7a3d b7cd a8bd
00000080: 1e1a 29bd 62a4 1f3c d86d 7dbd 5697 cf3d
00000090: 7684 3ebd e255 bfbd 87ac af3d c480 5c3d
000000a0: 2fef 163d 4da3 d7bc 0a84 afbd 8a38 72bd
000000b0: 2ca0 b83c 0aee ff3c 5907 1ebd dc68 773d
000000c0: b98c c63c 83f1 8f3d 47f3 0dbd 12ca 95bd
000000d0: 73e6 ffbb a957 5c3d 0ac9 20bd 399d 853d
000000e0: ad6c cc3d 2f77 9e3d 0bbb 4a3d 662c 5abd
000000f0: 908f cfbb 3bc3 0fbb 6ce3 a73c a22d d2bd
00000100: 775d 5838 4cec 87bd 672a d23c eb3f 993d
00000110: e83f b13d d349 2b3d 4ddc a33d 52f2 60bd
00000120: 5719 cbbc 6037 53bd dfd6 e2bc 3909 1e3e
00000130: e11e 253d 2a85 bebd bb9f cf3d 8a48 db3d
00000140: 2ac2 9dbc 9738 d73b 9bae 40bd 3e69 d3bc
00000150: eac4 43bd 335e 6b3c dbcf 39bd 1cd1 623d
00000160: d44f ac3c 2cd3 cabb 7d7b 2cbe 86ac fdbb
00000170: 26a2 b3bd 5469 843d fd4d b23c c231 763d
00000180: b57b 42bd 10c4 24bd 4105 3cbe 0472 fd3d
00000190: 2ef4 c3bd 0404 8e3d 5ccf b63d dd4d 01be
000001a0: c967 a8bd f785 a2bd 6b6c 673d e1fe 763c
000001b0: 5e5a 683d 6c85 e33d 620f 65bb 0a93 e23c
000001c0: ae4d 34be 9d56 c4bd 8be0 253d 53ca af3d
000001d0: d467 773d 9338 b8b8 4f9e 3e3d 22f7 88bd
000001e0: ef52 d5bd 254a 14be ee73 a73c 743e 543d
000001f0: bd7b ea3b f03e 0bbe f5d9 29bd 8899 9abd
00000200: 49f2 9dbd 238c 413d c292 4fbd 12b6 43bd
00000210: 3863 0c3d 60d9 493d 4d52 7c3c f54f 92bb
00000220: 4561 433d cfcb 813d c38e dc3c ca53 de3d
00000230: 5099 c63c 257b b83d a877 2f3d 80b6 be3d
00000240: 04eb 383d 2309 96bd 33bf 5e3d c6c7 7dbd
00000250: 57a3 aa3c 7ece 3c3d e1f3 9abd 6ab6 7cbd
00000260: edb9 60bc 19b5 313d 3f86 9e3c 62ed e9bd
00000270: 5971 abbd 2bfd 92bc 6063 eebd 588a 51bd
00000280: 6e50 c63d e3ef e4bc 5c56 bfbd 061a a83d
00000290: 88e7 e73d 85cf d73c 4f2c ddbd 7025 ac3c
000002a0: 56a0 bc3d 8488 64be ebc9 55bd 15cd b2bc
000002b0: c8c0 ba3c f791 31be cf4b ad3d b99c 04be
000002c0: b6e8 bd3b 39f4 573d f1a0 113d 8228 72be
000002d0: 93b4 0ebe 0972 f8bd eef4 efbc 078e 93bd
000002e0: 291b 863d dc4c eabc 75c0 943d 8d5d e2bd
000002f0: cf17 44be 2c88 dd3d 797d f7bc e81e bb3d
00000300: e1de adbc fabe 36ba c76f 07be f3a3 df3c
00000310: 5537 5d3c 8765 113e 8589 773d a6a8 063d
00000320: 2a28 cfbd 3fe3 ebbd 1a12 19bd c3a4 9c3d
00000330: 9566 2b3d 0428 633d 2cea ed3c 2818 823d
00000340: 7a87 30be 562d 883d 663c 3f3d cecd 0f3d
00000350: 556b 283d 059a cfbd af50 e53c 053b d3bc
00000360: 5d5b ac3a 982d b6bd 94d3 92bd 2cb0 21be
00000370: 80a7 1abe daf1 eabd 1d01 3d3d 51ad 31bd
00000380: b534 c7bc 0e9d e33c 7bf0 2abd fd15 b23d
00000390: 9e88 813b 44a5 9bbd f01e 863d 355b 7d3d
000003a0: 20d1 6e3d f795 003e 84ae a8bd 2b08 1e3d
000003b0: 0956 d2bd 2fd7 65bd 2a51 843c 2c72 a4bd
000003c0: 57b9 1c3d 4dde 9cbd 0dbd ebbd 04a1 063b
000003d0: 9244 28bd f07c 0b3d 2a65 783d b96e deba
000003e0: a46e 9abd 8ada 00bd ee4c 9dbd c26a b7bd
000003f0: 92e8 c7bc 17b7 133d 9db9 2bbd 5824 0e3d

feature_extractor.2.bias f4 [64]
-0.07639825 0.09377017 0.16295384 0.0076731727 0.033421434 -0.030373348 0.12983268 -0.03907214
-0.004461819 0.07487721 0.0855796 0.08523842 -0.09129879 0.042915273 0.15139593 0.026902385
0.023141233 0.187326 -0.020212175 -0.07982221 -0.005733395 0.081094645 0.12407646 0.04896673
-0.04313838 0.04216604 0.022370229 0.15599044 -0.09244295 -0.0065121176 0.17513375 0.062023923
0.052004218 -0.0032513144 0.13268176 0.123620376 -0.02594883 0.06422325 -0.0143558625 0.008153827
-0.07604957 0.15474589 -0.015606611 0.018161956 0.09104828 0.17317773 0.12377362 0.12422708
0.0902321 0.12420592 0.057450734 0.04461736 -0.07236507 0.15102375 0.113393776 0.06698079
0.198876 0.16301662 0.09913502 0.13349181 0.013395941 0.025487754 -0.009864204 -0.14643684
00000000: b076 9cbd 930a c03d 5fdd 263e 3d6f fb3b
00000010: eae4 083d 87d1 f8bc dcf2 043e 1c0a 20bd
00000020: 7334 92bb 3959 993d 5b44 af3d 7b91 ae3d
00000030: dcfa babd edc7 2f3d 8907 1b3e 6462 dc3c
00000040: af92 bd3c 63d2 3f3e 0194 a5bc d479 a3bd
00000050: 34df bbbb f314 a63d cd1b fe3d 5691 483d
00000060: dfb1 30bd 4cb6 2c3d c541 b73c f5bb 1f3e
00000070: bb52 bdbd 9a63 d5bb 4356 333e cc0c 7e3d
00000080: 6002 553d 0114 55bb badd 073e ae2c fd3d
00000090: a492 d4bc 7b87 833d da34 6bbc a197 053c
000000a0: e1bf 9bbd b575 1e3e dfb2 7fbc 62c8 943c
000000b0: 8577 ba3d 8155 313e 067d fd3d c46a fe3d
000000c0: 9bcb b83d ac5f fe3d 7651 6b3d b1c0 363d
000000d0: 2334 94bd f8a5 1a3e ff3a e83d 392d 893d
000000e0: 26a6 4b3e d4ed 263e 4d07 cb3d 14b2 083e
000000f0: a67a 5b3c b2cb d03c 789d 21bc 8af3 15be

feature_extractor.4.weight f4 [64, 64, 3]
-0.059588533 -0.02382934 0.061767466 -0.05594754 -0.036447756 0.05172602 0.08304256 -0.0008995196
-0.01656716 0.063693084 -0.06515979 -0.0053928 -0.049775004 -0.021644138 -0.025717417 0.005362931
-0.022377731 0.03759073 0.0082305875 0.06879887 0.036405765 -0.029783202 -0.052746046 -0.06596032
-0.08358512 -0.032629207 -0.036481965 0.053139325 0.0048259893 0.01091243 -0.020424567 -0.0608288
0.037988048 0.06501011 -0.06957253 -0.023081124 -0.058249492 -0.07311051 -0.02902818 0.05383219
0.053643767 0.032762293 0.07671827 0.045103975 0.06385526 -0.013699302 0.0024494096 -0.018086197
0.033186175 0.020533817 0.02069705 0.031846475 -0.012891661 0.031492546 0.010920534 -0.03724861
0.03758669 0.033405527 -0.036211956 -0.0065714843 -0.07273183 -0.04580771 -0.056990236 -0.03189571
-0.05918529 0.0671013 0.061396047 0.009880074 -0.03361725 0.097366475 0.08423205 0.09815117
0.057645425 0.032550447 0.027842097 -0.05330901 0.04576071 0.061517447 0.02827704 -0.05096096
-0.040205915 -0.029149638 -0.016430145 -0.026985403 0.022516506 0.028385714 0.059243586 -0.060694758
0.034395672 0.04418865 0.0038412928 -0.031813543 -0.023715295 0.059632886 -0.04532796 0.030809086
0.089276016 0.0394636 -0.0060392697 0.032706276 -0.048372317 0.05744816 0.007422045 -0.06261843
-0.030834904 0.09230948 -0.05470538 -0.012663981 0.04061326 -0.014164429 0.07821358 0.030385511
-0.032782942 -0.008718768 -0.04593493 0.09105148 0.068816766 0.010716468 -0.056377828 -0.013945329
-0.03645437 -0.08738711 -0.07105138 0.006833541 -0.060313653 -0.085910484 0.06661283 0.0789953
0.081774935 0.06918182 -0.054255355 -0.070645094 0.014867351 0.09553439 0.015169511 0.05099655
0.028901985 -0.0065687215 0.0637342 0.024632197 -0.005082354 -0.027766285 0.067214735 0.04751291
-0.040684287 0.04469795 -0.005962821 0.051133197 -0.06352728 -0.09984676 -0.03302948 -0.038457934
0.0049270997 -0.002075464 -0.085171245 -0.068455435 0.074539736 0.13944766 0.05558352 -0.019041354
0.009205439 0.017650949 -0.031031905 -0.05376347 0.068304524 -0.011758095 0.052984558 0.07616446
-0.015426891 -0.09455476 -0.035165753 0.006807675 0.025906993 -0.030078549 -0.018310212 -0.010509564
0.05397891 -0.027949201 -0.15509419 -0.046652995 -0.06415071 0.026417209 0.0057909037 0.016297864
-0.04371345 -0.06198125 0.08839633 0.06300209 0.04098189 0.010192378 -0.07413938 0.04767425
0.05144043 0.044321492 0.0126129165 -0.036377184 0.0005734547 0.036230378 0.045593336 0.11172048
-0.00012554968 0.028966805 -0.0035425697 0.0035278383 0.021518767 0.103216514 0.033305287 -0.002208843
-0.032655273 -0.025316939 0.020111132 0.115497015 0.037645552 -0.022688843 -0.111539036 -0.076156706
-0.07780117 0.038500175 0.017232306 0.10951547 0.097960405 0.23313892 -0.06647592 -0.05236094
-0.01807363 -0.019208228 0.076426946 -0.029384732 -0.086227156 -0.21260598 -0.111877665 -0.039332394
0.06526601 -0.07340578 0.009213237 0.061358284 0.008684102 -0.020868652 0.040375542 0.022364765
0.09935753 -0.02518224 0.06505405 -0.014800371 -0.0077602426 0.073714405 0.015548335 0.061893314
0.030698577 0.064836845 0.01587886 -0.04068703 0.06038594 0.05201868 0.0117110945 -0.06297371
00000000: 1b13 74bd bf35 c3bc e2ff 7c3d 3f29 65bd
00000010: 3e4a 15bd aade 533d 3812 aa3d bdcd 6bba
00000020: dab7 87bc 8571 823d 7f72 85bd 16b6 b0bb
00000030: e0e0 4bbd 0c4f b1bc 55ad d2bc 87bb af3b
00000040: 8151 b7bc bdf8 193d 96d9 063c 6ce6 8c3d
00000050: 361e 153d e7fb f3bc 3d0c 58bd 3416 87bd
00000060: ad2e abbd 34a6 05bd 1d6e 15bd 9fa8 593d
00000070: 5523 9e3b 0cca 323c 6c51 a7bc 9f27 79bd
00000080: 5b99 1b3d 0524 853d 0b7c 8ebd a014 bdbc
00000090: 0597 6ebd f7ba 95bd 81cc edbc 247f 5c3d
000000a0: 91b9 5b3d c131 063d 781e 9d3d f2be 383d
000000b0: 8cc6 823d 0a73 60bc 4686 203b 8129 94bc
000000c0: 3aee 073d 8936 a83c dc8c a93c 7371 023d
000000d0: 8c37 53bc 54fe 003d 0aec 323c 0092 18bd
000000e0: 80f4 193d 3cd4 083d fd52 14bd 9b55 d7bb
000000f0: 6df4 94bd dea0 3bbd 986e 69bd 13a5 02bd
00000100: 466c 72bd 686c 893d 6c7a 7b3d 09e0 213c
00000110: 3eb2 09bd 1368 c73d da81 ac3d 7b03 c93d
00000120: 9c1d 6c3d 9e53 053d 1c15 e43c 8c5a 5abd
00000130: 956f 3b3d b8f9 7b3d 40a5 e73c 71bc 50bd
00000140: f5ae 24bd 39cb eebc 8398 86bc 7e10 ddbc
00000150: 8974 b83c 2889 e83c 67a9 723d 119b 78bd
00000160: 7ae2 0c3d 28ff 343d 33be 7b3b eb4e 02bd
00000170: 9446 c2bc 9d41 743d d0a9 39bd 5663 fc3c
00000180: 58d6 b63d 95a4 213d 11e5 c5bb 04f7 053d
00000190: 0d22 46bd c34e 6b3d a034 f33b 173e 80bd
000001a0: 7b99 fcbc c10c bd3d c012 60bd 967c 4fbc
000001b0: 175a 263d ec11 68bc 712e a03d 09eb f83c
000001c0: 6847 06bd 2ad9 0ebc 4426 3cbd 3379 ba3d
000001d0: ceef 8c3d 2094 2f3c 70ec 66bd f37a 64bc
000001e0: 2d51 15bd 03f8 b2bd 6383 91bd e6eb df3b
000001f0: 730b 77bd d6f1 afbd 4f6c 883d 4ac8 a13d
00000200: 9e79 a73d 33af 8d3d dd3a 5ebd 60ae 90bd
00000210: 3196 733c 89a7 c33d 8a89 783c c2e1 503d
00000220: dbc3 ec3c 6e3e d7bb 1487 823d 76c9 c93c
00000230: e089 a6bb 1f76 e3bc e1a7 893d e69c 423d
00000240: 91a4 26bd 3315 373d c563 c3bb 0b71 513d
00000250: 971a 82bd 757c ccbd ec49 07bd 1186 1dbd
00000260: 8273 a13b 8204 08bb 436e aebd 5d32 8cbd
00000270: 4aa8 983d 5ecb 0e3e 8cab 633d 9dfc 9bbc
00000280: 69d2 163c b998 903c 9f36 febc 1637 5cbd
00000290: 3ee3 8b3d 06a5 40bc 5606 593d 1dfc 9b3d
000002a0: 12c1 7cbc eda5 c1bd f709 10bd eb12 df3b
000002b0: e73a d43c 4a67 f6bc 4cff 95bc 4e30 2cbc
000002c0: fd18 5d3d b9f5 e4bc 03d1 1ebe 3617 3fbd
000002d0: 7361 83bd e768 d83c 9fc1 bd3b 1983 853c
000002e0: e00c 33bd 0de0 7dbd 2309 b53d 3d07 813d
000002f0: a0dc 273d effd 263c 63d6 97bd 1346 433d
00000300: 33b3 523d 748a 353d 68a6 4e3c 3e00 15bd
00000310: e553 163a 4e66 143d 14c0 3a3d b5cd e43d
00000320: fca5 03b9 cb4b ed3c 752a 68bb 4e33 673b
00000330: 2048 b03c 2e63 d33d 206b 083d 3cc2 10bb
00000340: 89c1 05bd 7865 cfbc 1ac0 a43c b389 ec3d
00000350: 3932 1a3d f4dd b9bc 946e e4bd 0cf8 9bbd
00000360: 3856 9fbd 5cb2 1d3d c42a 8d3c a649 e03d
00000370: 779f c83d f8bb 6e3e 8724 88bd 6d78 56bd
00000380: 260f 94bc 935a 9dbc bb85 9c3d 40b8 f0bc
00000390: dd97 b0bd 62b5 59be 1e20 e5bd 011b 21bd
000003a0: 30aa 853d c555 96bd 1ef3 163c d352 7b3d
000003b0: c447 0e3c bcf4 aabc d360 253d 5036 b73c
000003c0: f67b cb3d fc4a cebc 0f3b 853d 417d 72bc
000003d0: a249 febb 94f7 963d 72be 7e3c d883 7d3d
000003e0: 957b fb3c 2ec9 843d 6214 823c 71a7 26bd
000003f0: 3f57 773d 8a11 553d e4df 3f3c 5cf8 80bd

feature_extractor.4.bias f4 [64]
0.020583881 0.1455782 -0.014492515 -0.07818743 0.115565434 0.028052526 0.08112302 0.0037779084
0.14488126 0.041905377 -0.011321971 -0.07001897 0.01713088 0.07174018 0.009538463 0.039015096
0.045675773 -0.027735088 0.121495835 0.019629035 0.087886065 0.13507271 -0.037760314 0.10910741
-0.036792707 0.11627544 0.08284998 0.04699782 -0.07754382 0.04812299 0.07123754 -0.008020292
9.4712115e-05 0.08975441 0.026008375 -0.105729036 -0.057658967 0.14403668 0.12087666 0.06583953
-0.09425522 0.012147833 0.096347265 0.04493134 0.05318349 -0.006631861 0.0637943 0.019772615
-0.018581815 0.05574133 0.13311979 0.100413196 0.059888434 0.018859867 0.0050092335 0.09328557
0.088072 0.029781712 0.094312504 0.109406345 -0.014558717 0.04675812 0.10418737 0.07206651
00000000: 879f a83c 7412 153e 0372 6dbc bb20 a0bd
00000010: 92ad ec3d 69ce e53c d323 a63d c996 773b
00000020: c15b 143e f9a4 2b3d ca7f 39bc 1b66 8fbd
00000030: 0f56 8c3c 84ec 923d 3747 1c3c 4bce 1f3d
00000040: 8516 3b3d b234 e3bc cfd2 f83d 12cd a03c
00000050: 9cfd b33d 8050 0a3e 8faa 1abd b573 df3d
00000060: f3b3 16bd d121 ee3d 40ad a93d c980 403d
00000070: 4bcf 9ebd 9d1c 453d fde4 913d 8b67 03bc
00000080: 2ea0 c638 29d1 b73d 840f d53c 7788 d8bd
00000090: cf2b 6cbd 5a7e 133e 2f8e f73d e0d6 863d
000000a0: e108 c1bd b407 473c b751 c53d ed09 383d
000000b0: eed6 593d 1550 d9bb 96a6 823d 2efa a13c
000000c0: e438 98bc 0551 643d 8e50 083e 6fa5 cd3d
000000d0: 934d 753d 0280 9a3c 7f24 a43b 810c bf3d
000000e0: 185f b43d c7f8 f33c ea26 c13d 6f10 e03d
000000f0: af87 6ebc 7185 3f3d 3060 d53d 9b97 933d

head.0.weight f4 [256, 512]
0.0178315 -0.022859115 -0.03662461 0.0117648635 0.0026349584 -0.025051089 0.058503464 0.017393315
0.0066748285 0.03261482 0.012264814 0.041469995 0.021006249 0.0043199076 -0.015985388 0.03544818
0.022952557 -0.016207132 -0.047230113 0.008412085 0.00019081048 0.011550804 -0.028711047 -0.018510655
0.026837237 -0.034860287 0.058052685 -0.0027632415 0.009855503 -0.0018099061 0.008612699 -0.0018868501
0.019419696 -0.050279144 0.024328016 -0.039151024 0.02118417 0.029409125 -0.060059026 0.020915106
0.07548726 0.008536511 0.06290844 -0.012649384 -0.007761824 0.046057165 0.03757574 0.003202691
0.035550185 -0.07198576 0.054344743 -0.013917198 0.03921917 -0.024871651 0.020178843 0.007538203
-0.11158552 -0.0037353141 0.04165204 -0.02368661 -0.04865474 -0.07758694 0.008702658 0.022068838
-0.10020886 0.030051889 0.03624368 -0.010085445 0.0015508058 0.025151368 0.08159867 0.021699019
0.03397539 -0.03456423 -0.01173229 -0.022072827 0.017303918 -0.007981958 0.014606249 0.037593145
0.030013584 -0.062313188 0.049601045 0.016707495 -0.0058360817 0.0035617233 0.026282854 -0.04243854
-0.040399473 0.008084058 -0.0071430933 -0.021434085 -0.009776658 0.047245793 -0.030056266 -0.031163767
0.029507851 -0.04485399 0.041510485 0.044122916 0.006795876 -0.02337922 0.011381411 0.021629166
-0.01926891 0.035363737 -0.0831441 0.062300645 0.00570879 0.07562953 -0.012720272 -0.12342003
-0.039257072 0.0043061776 -0.00267728 -0.0039430433 0.01774517 0.062405482 0.05673785 0.0045213187
0.055026922 -0.046371527 0.04781232 -0.0066420883 0.017084783 -0.05414163 0.0050076027 0.035892837
0.069519244 0.0024664642 -0.00096918154 -0.056169678 0.010269191 -0.035241067 -0.037459273 -0.019900305
0.052468993 -0.019817727 0.011014169 -0.053684443 0.04409969 0.006730537 0.052198485 -0.014573268
0.01126816 0.012021584 -0.11276476 0.034202464 -0.075729236 0.0331094 -0.08661079 -0.03442459
-0.055249494 0.035239313 0.003289941 0.018825656 -0.039973598 -0.007792391 0.016378056 0.016686365
-0.017504051 0.04850934 -0.049840815 0.06726118 -0.035157792 -0.008331404 -0.001528609 -0.04527638
-0.049572613 0.015644621 -0.07712558 0.081803046 -0.03601522 0.028519394 -0.044965245 -0.01864111
0.057206776 -0.008228027 0.03535227 -0.07125086 0.009995179 0.0016409897 0.06405013 0.025770167
0.003610088 0.04126492 -0.053905196 0.08279316 -0.025985278 0.04663464 -0.076703645 0.06169854
0.04580784 -0.06758999 0.025283217 -0.032900393 0.0048155305 -0.02433265 0.042150557 -0.030279705
0.039258815 -0.02581466 0.082740314 0.0074480255 0.026555613 -0.014305065 0.08051995 0.014398902
0.083628036 0.057813272 0.051940974 0.02383238 -0.016079072 0.057537347 0.064299636 0.0034113992
0.014035411 0.047635972 0.055345528 -0.05990993 0.017974854 -0.014154227 0.018032823 -0.061888807
-0.08178443 0.02509481 -0.030932907 0.029363824 -0.026668835 0.006468358 -0.044541724 -0.029484242
0.031212214 -0.027454956 0.0034162 -0.004943651 0.03502021 0.04173934 -0.023802904 0.060748957
-0.020456638 0.05534446 -0.006692938 -0.0026129528 -0.042204957 0.020317124 -0.005264798 -0.04211418
-0.042046078 0.04190525 -0.07258175 0.05357194 -0.027027914 0.03749795 -0.05925127 0.08696448
00000000: 5e13 923c 0a43 bbbc b003 16bd 6ac1 403c
00000010: 44af 2c3b f137 cdbc 54a1 6f3d 6d7c 8e3c
00000020: 85b8 da3b 1e97 053d 5cf2 483c 71dc 293d
00000030: 4c15 ac3c 038e 8d3b caf3 82bc 1c32 113d
00000040: 0007 bc3c d2c4 84bc 5d74 41bd d7d2 093c
00000050: 4c14 4839 953f 3d3c 6e33 ebbc a8a3 97bc
00000060: c4d9 db3c a9c9 0ebd a7c8 6d3d 8017 35bb
00000070: fa78 213c 5f3a edba 471c 0d3c 2f50 f7ba
00000080: 0e16 9f3c 81f1 4dbd 8c4b c73c d35c 20bd
00000090: 6d8a ad3c 68eb f03c 7400 76bd 2856 ab3c
000000a0: 1199 9a3d b9dc 0b3c 24d6 803d 5d3f 4fbc
000000b0: e656 febb 70a6 3c3d 05e9 193d 3de4 513b
000000c0: 129d 113d 456d 93bd 9898 5e3d f604 64bc
000000d0: 48a4 203d a2bf cbbc 1a4e a53c 0803 f73b
000000e0: f386 e4bd 2ccc 74bb 549b 2a3d 6c0a c2bc
000000f0: 314a 47bd e7e5 9ebd 9895 0e3c b5c9 b43c
00000100: 4e3a cdbd 612f f63c 4174 143d 6c3d 25bc
00000110: 6844 cb3a 3e0a ce3c 341d a73d 24c2 b13c
00000120: c729 0b3d 3993 0dbd ca38 40bc 13d2 b4bc
00000130: f2c0 8d3c c2c6 02bc 0c4f 6f3c 45fb 193d
00000140: 0cdf f53c 1d3c 7fbd 772a 4b3d 28de 883c
00000150: 9a3c bfbb cd6b 693b 244f d73c 09d4 2dbd
00000160: eb79 25bd ff72 043c 9c10 eabb 8996 afbc
00000170: 472e 20bc ce84 413d 8f38 f6bc 284b ffbc
00000180: 73ba f13c d1b8 37bd e606 2a3d 3bba 343d
00000190: f1af de3b c785 bfbc 1979 3a3c a62f b13c
000001a0: d5d9 9dbc 91d9 103d 7447 aabd f62e 7f3d
000001b0: cd10 bb3b a8e3 9a3d b068 50bc a4c3 fcbd
000001c0: 06cc 20bd d61a 8d3b 4e75 2fbb a534 81bb
000001d0: 525e 913c e49c 7f3d f365 683d 9227 943b
000001e0: e963 613d 12f0 3dbd dad6 433d e0a5 d9bb
000001f0: 63f5 8b3c 9dc3 5dbd d116 a43b 5e04 133d
00000200: 1b60 8e3d 67a4 213b ac10 7eba 2d12 66bd
00000210: 1c40 283c f058 10bd e56e 19bd f705 a3bc
00000220: bae9 563d c958 a2bc c674 343c 38e4 5bbd
00000230: e0a1 343d d68b dc3b 14ce 553d b7c4 6ebc
00000240: 179e 383c 2ef6 443c 36f1 e6bd e217 0c3d
00000250: ee17 9bbd b99d 073d ff60 b1bd cd00 0dbd
00000260: 4b4d 62bd 1957 103d 0d9c 573b 4338 9a3c
00000270: 5bbb 23bd 5057 ffbb 462b 863c d8b1 883c
00000280: a864 8fbc bbb1 463d e225 4cbd 3bc0 893d
00000290: 9e01 10bd 7180 08bc 9b5b c8ba ba73 39bd
000002a0: a70c 4bbd 2629 803c 04f4 9dbd 5b88 a73d
000002b0: b284 13bd 81a1 e93c 7a2d 38bd 3eb5 98bc
000002c0: a751 6a3d d9ce 06bc 8bcd 103d f9eb 91bd
000002d0: d2c2 233c 7a16 d73a b72c 833d f51b d33c
000002e0: 3a97 6c3b 6805 293d b2cb 5cbd 768f a93d
000002f0: 14df d4bc f703 3f3d cd16 9dbd 9cb7 7c3d
00000300: 00a1 3b3d 9f6c 8abd c01e cf3c 90c2 06bd
00000310: 99cb 9d3b 4455 c7bc 10a6 2c3d 250d f8bc
00000320: dacd 203d 4479 d3bc c173 a93d 910e f43b
00000330: 288b d93c cb5f 6abc a5e7 a43d 5fe9 6b3c
00000340: 2d45 ab3d 9ccd 6c3d 0fc0 543d 203c c33c
00000350: 42b8 83bc 48ac 6b3d 87af 833d c891 5f3b
00000360: c8f4 653c f01d 433d feb1 623d 1d64 75bd
00000370: 0040 933c 22e7 67bc 92b9 933c 1e7f 7dbd
00000380: 987e a7bd a293 cd3c 0267 fdbc 678c f03c
00000390: 9a78 dabc 85f4 d33b 6271 36bd f088 f1bc
000003a0: c2b0 ff3c 37e9 e0bc 53e2 5f3b 5afe a1bb
000003b0: 5a71 0f3d dff6 2a3d 4ffe c2bc e6d3 783d
000003c0: ae94 a7bc dfb0 623d 6f50 dbbb 133e 2bbb
000003d0: 1bdf 2cbd 1970 a63c 5484 acbb eb7f 2cbd
000003e0: 8238 2cbd d7a4 2b3d bea5 94bd 406e 5b3d
000003f0: a569 ddbc 7397 193d 76b1 72bd 6f1a b23d

head.0.bias f4 [256]
0.020535555 -0.016951866 0.06256021 -0.037261203 0.06657919 -0.050674293 0.053229835 0.081153415
0.06560353 0.0069973925 0.0051139463 0.015932493 0.032731965 0.023465106 0.0421816 0.00556732
0.07927329 0.045466226 0.051370252 -0.044971947 -0.043800503 0.015911499 0.066758625 0.06808355
0.07060343 0.06812329 0.024660246 0.008040277 -0.024946583 -0.03582365 -0.03228179 0.008298564
0.0136845205 -0.058449272 -0.015379533 0.012142861 -0.008897655 0.01724635 0.024021106 -0.09483658
0.0702017 -0.013404214 0.08548652 0.0704378 0.09796663 0.021448335 0.052838925 -0.039618783
0.057416067 0.03557337 0.016509758 0.116645955 0.05479325 -0.012699359 0.013919641 -0.04533607
0.022855684 -0.05279035 0.0132288495 -0.027611075 -0.04272919 0.09521854 -0.02168837 0.03187172
0.03218594 0.056661453 0.027206715 0.059616186 0.026220758 0.059134904 -0.04845236 0.046813574
0.0099133635 0.066535234 -0.035847273 -0.021714106 0.07400846 0.06505551 0.07230603 0.06785818
0.03454701 -0.030512936 -0.008080332 0.059508722 0.03203232 -0.060749047 0.057717938 -0.050151285
0.06945428 -0.06520873 -0.036453478 -0.029116211 0.055547696 -0.046640612 0.045240574 0.07373303
0.030671146 -0.030742744 0.05901909 0.07745415 0.051734086 0.060658008 0.059491277 0.054645065
-0.0537892 0.036584865 0.06696639 -0.0016778365 0.011802733 0.039832592 0.079202004 0.05088649
0.044257104 -0.039479446 0.055430543 0.066025816 0.050629243 0.026566384 0.050448652 0.045534413
-0.03799634 -0.035681847 -0.0045872387 -0.011216433 0.01778184 0.047708377 0.05254662 0.034637667
0.044363115 -0.059036683 0.059387222 0.000724714 0.010407765 0.06257258 -0.031828694 0.049493767
0.07378777 -0.11481766 0.02703504 -0.039385792 0.0023645626 0.02894795 0.038010504 0.041739866
0.08906723 0.05858043 0.029629685 -0.043485023 0.016104238 0.074441805 0.034959413 -0.0074890717
-0.021725193 0.045516454 -0.047479425 0.08896267 -0.012572822 -0.016700871 0.051581405 0.020213334
0.012439313 0.040467165 0.034702916 0.03757306 -0.027861634 -0.053650036 0.065561 0.0488643
0.01909559 -0.023838403 -0.036322393 0.023328144 0.05645477 0.0062799407 0.010154651 -0.02507175
0.11846755 -0.05299665 -0.023377793 0.045925066 0.07673375 0.0036809894 -0.05386321 0.09339118
0.06898339 0.036579635 0.082420126 0.025781257 0.056861453 -0.014924304 0.01421184 0.047741473
0.019168649 0.049610924 0.008907298 0.012843097 0.032963056 -0.01527334 0.0052262465 0.04790387
0.038877804 0.021987317 0.10516211 0.03320159 -0.022142116 0.07086178 0.060196135 0.019092591
0.081559315 -0.03794447 0.08998437 -0.027440425 -0.039584883 0.046289053 0.05891185 -0.037859105
0.012037751 -0.061001983 -0.0093130395 0.01576229 0.052954257 -0.037563767 0.061314467 0.014286548
0.02576315 -0.014405381 0.037065648 0.06606805 -0.045960672 0.08560811 0.010650084 0.051218957
-0.017487407 0.06396591 -0.010990005 -0.0004258054 0.030894523 0.10376498 0.091542594 -0.028860617
0.021103133 0.003804521 -0.025840305 0.04170086 -0.057960723 0.05632735 0.06583172 -0.019959278
0.008888639 0.0004720367 0.061799217 0.005115417 -0.020416575 0.07177117 0.027702812 0.028765408
00000000: 2e3a a83c a4de 8abc 911f 803d 349f 18bd
00000010: ac5a 883d d98f 4fbd 8707 5a3d c333 a63d
00000020: 255b 863d 624a e53b e492 a73b dc84 823c
00000030: f411 063d e539 c03c 9dc6 2c3d 116e b63b
00000040: 095a a23d cb3a 3a3d 9d69 523d 8134 38bd
00000050: 2868 33bd d558 823c bfb8 883d 636f 8b3d
00000060: 8898 903d 3984 8b3d 4904 ca3c 5ebb 033c
00000070: c75c ccbc d2bb 12bd e939 04bd b3f6 073c
00000080: 0a35 603c 8168 6fbd 70fa 7bbc daf2 463c
00000090: 78c7 11bc 3848 8d3c e9c7 c43c ae39 c2bd
000000a0: e9c5 8f3d 599d 5bbc 8e13 af3d b141 903d
000000b0: baa2 c83d 6bb4 af3c a16d 583d 4e47 22bd
000000c0: 1c2d 6b3d 62b5 113d 793f 873c 13e4 ee3d
000000d0: e36e 603d f910 50bc 350f 643c 51b2 39bd
000000e0: d83b bb3c b23a 58bd d1bd 583c 9f30 e2bc
000000f0: ce04 2fbd f001 c33d cfab b1bc ec8b 023d
00000100: 67d5 033d d715 683d 9ee0 de3c 1a30 743d
00000110: eacc d63c 7137 723d fb75 46bd 97bf 3f3d
00000120: a96b 223c a043 883d 97d4 12bd c8e1 b1bc
00000130: bf91 973d d33b 853d 2f15 943d 3bf9 8a3d
00000140: 2a81 0d3d 44f6 f9bc 5e63 04bc 6bbf 733d
00000150: 5234 033d fed3 78bd a569 6c3d 6f6b 4dbd
00000160: 0c3e 8e3d 288c 85bd 3e50 15bd 1f85 eebc
00000170: fb85 633d 3a0a 3fbd 2e4e 393d 5801 973d
00000180: 0e42 fb3c 35d8 fbbc 00be 713d 48a0 9e3d
00000190: 1fe7 533d 8874 783d 20ad 733d 81d3 5f3d
000001a0: 1052 5cbd 03da 153d ad25 893d daea dbba
000001b0: 4060 413c 8027 233d a934 a23d 5a6e 503d
000001c0: f046 353d 33b5 21bd 230b 633d 8b38 873d
000001d0: 9c60 4f3d bfa1 d93c 3fa3 4e3d 4b82 3a3d
000001e0: 0da2 1bbd 2127 12bd 8c50 96bb 21c5 37bc
000001f0: 39ab 913c dc69 433d 203b 573d 3ae0 0d3d
00000200: 19b6 353d 73d0 71bd 0440 733d bcfa 3d3a
00000210: 5585 2a3c 0e26 803d ce5e 02bd fab9 4a3d
00000220: 0b1e 973d 8525 ebbd 9778 dd3c ff52 21bd
00000230: c7f6 1a3b 4024 ed3c e7b0 1b3d 6cf7 2a3d
00000240: e168 b63d 08f2 6f3d f4b9 f23c 5a1d 32bd
00000250: 09ed 833c f274 983d 9a31 0f3d e366 f5bb
00000260: 08f9 b1bc 766f 3a3d c979 42bd 0f32 b63d
00000270: 3dfe 4dbc 44d0 88bc 0647 533d 6f96 a53c
00000280: 43ce 4b3c e6c0 253d a524 0e3d 35e6 193d
00000290: 153e e4bc 24c0 5bbd d844 863d ef25 483d
000002a0: 5b6e 9c3c c148 c3bc cac6 14bd aa1a bf3c
000002b0: 1e3d 673d f6c7 cd3b b15f 263c 4563 cdbc
000002c0: 1d9f f23d 0413 59bd c982 bfbc ec1b 3c3d
000002d0: 9626 9d3d c13c 713b ab9f 5cbd e043 bf3d
000002e0: 2a47 8d3d 87d4 153d e2cb a83d 3733 d33c
000002f0: 8ee7 683d 1185 74bc c7d8 683c 908c 433d
00000300: 9207 9d3c d334 4b3d eaef 113c da6b 523c
00000310: 4504 073d 083d 7abc ef40 ab3b d936 443d
00000320: 553e 1f3d bf1e b43c 3b5f d73d 64fe 073d
00000330: 6263 b5bc fb1f 913d 3990 763d 1168 9c3c
00000340: 9208 a73d a96b 1bbd ba49 b83d beca e0bc
00000350: c223 22bd 9799 3d3d 8d4d 713d 2612 1bbd
00000360: fd39 453c 37dd 79bd b895 18bc eb1f 813c
00000370: 90e6 583d 77dc 19bd e124 7b3d 2012 6a3c
00000380: 3e0d d33c 8c04 6cbc 26d2 173d b04e 873d
00000390: 4241 3cbd 4e53 af3d b17d 2e3c f8ca 513d
000003a0: c041 8fbc 8f00 833d 6c0f 34bc a23e dfb9
000003b0: 8316 fd3c bc82 d43d af7a bb3d 1a6d ecbc
000003c0: 7ae0 ac3c 4555 793b 0caf d3bc 85ce 2a3d
000003d0: 3968 6dbd 82b7 663d c8d2 863d a481 a3bc
000003e0: a7a1 113c b27b f739 2d21 7d3d 3a9f a73b
000003f0: a940 a7bc c3fc 923d 02f1 e23c 6fa5 eb3c

head.3.weight f4 [128, 256]
-0.020030685 -0.03318635 0.04295006 0.052770276 0.011434728 -0.10035246 -0.05407628 0.034055695
-0.031244457 0.040991984 0.033626694 0.03581186 -0.022836696 0.08507912 -0.029494701 0.018895626
-0.017176509 -0.09238433 0.10621583 -0.002468823 -0.024817208 0.05539924 0.042523395 0.1178972
-0.033974018 0.021476354 0.004511728 -0.017112518 -0.03852256 0.07257039 0.0144665 0.04143235
0.038233142 0.014525087 0.0046601235 -0.021342594 0.020586839 -0.013359168 -0.0077799507 0.0065087853
-0.055040978 -0.077357106 0.040217232 -0.0013369166 -0.013499472 0.046434965 -0.00681152 -0.019029636
0.08665135 0.005505658 -0.06820795 0.015233024 0.05248828 0.06522183 0.050814457 -0.014786769
0.046719953 -0.04761279 0.03840126 -0.068555 -0.059914242 -0.012925539 0.043109275 0.090585254
0.0110366745 -0.024370449 0.069549 0.07219194 -0.057180773 -0.018588481 0.019097723 -0.09220645
0.0021114051 0.03385319 0.0775934 0.042481348 -0.0010408019 0.023307547 -0.06908909 -0.042689312
-0.082538545 0.044828564 0.038080942 0.03592897 0.047263518 0.06704697 0.055348225 -0.051791437
0.08285208 -0.038624328 0.0031906224 -0.010128691 0.007306029 -0.023408648 0.0340551 -0.02679771
0.043554686 -0.029841833 0.026677944 0.046631355 -0.03425737 -0.006768587 0.094027035 -0.043563504
0.0047728713 0.011101789 0.04402269 -0.068917595 -0.023839012 -0.08885937 0.06919591 -0.02475416
-0.014611195 0.032790195 0.06791381 -0.048864424 -0.00011018788 -0.10563406 -0.021682367 -0.07378484
-0.034268472 -0.014342445 -0.013754744 0.013020395 -0.06479843 0.042197466 0.050364994 0.006114255
-0.0047495565 -0.02806742 0.019792719 -0.012940167 0.05898771 0.071820445 -0.0004216189 0.0048040375
0.009563009 -0.07692088 0.0055705057 -0.026492719 0.024434168 0.061906356 0.047492504 -0.050244946
0.015912633 0.00968449 -0.04324378 -0.043885637 0.054651152 0.028719936 0.09760878 -0.010057415
0.05757937 -0.03501169 -0.027805535 0.09453025 -0.0023022117 -0.024162667 -0.005436914 -0.00027838963
0.023702538 -0.009116559 -0.0758465 -0.033844743 0.0781201 0.02888766 -0.012099523 0.051407278
0.032415647 0.035310347 -0.008412497 -0.043876417 -0.02247511 -0.055777963 -0.011115402 0.031191505
-0.04525056 -0.019316953 -0.035699386 -0.026411003 -0.00303794 -0.013989176 -0.049131393 0.03459873
0.037034664 -0.068718605 0.042655457 -0.016980765 -0.0053870673 -0.03290431 -0.025343833 0.017868768
0.06276577 0.040607363 -0.0031831756 -0.068448566 -0.00986689 0.04495032 0.035839263 0.06443342
0.013810268 -0.068216644 0.048870143 -0.008203013 0.022509236 -0.06292556 -0.0049943705 0.05091263
-0.071549855 0.03082434 0.017855829 0.061439753 -0.036393717 0.032389767 -0.0012501113 0.0527853
0.029054621 -0.022913989 -0.045805488 -0.09409923 0.0021853093 0.061257232 -0.0037407961 0.026978072
-0.0018135847 -0.07394467 0.0009147358 0.080272436 -0.021491343 0.039018553 0.036234267 -0.061323263
0.05110053 0.08151167 -0.080874376 -0.08614204 0.04703966 -0.015438269 -0.031118272 -0.045405015
0.044128776 -0.00010475717 0.011747567 0.035650976 -0.022840552 0.03086918 0.021895375 -0.05503977
-0.019975659 0.0010205664 -0.03924521 0.072214425 -0.015149501 0.051982034 0.07466472 -0.095639266
00000000: 6417 a4bc 69ee 07bd 67ec 2f3d a525 583d
00000010: ba58 3b3c 9785 cdbd 177f 5dbd fc7d 0b3d
00000020: 60f4 ffbc 36e7 273d 25bc 093d 75af 123d
00000030: 0614 bbbc f63d ae3d df9e f1bc 00cb 9a3c
00000040: c0b5 8cbc ff33 bdbd af87 d93d facb 21bb
00000050: 754d cbbc 50ea 623d 032d 2e3d 1674 f13d
00000060: 5728 0bbd 2eef af3c 1ed7 933b 8d2f 8cbc
00000070: d5c9 1dbd c99f 943d e604 6d3c f8b4 293d
00000080: 5b9a 1c3d a1fa 6d3c f3b3 983b aad6 aebc
00000090: bba5 a83c 69e0 5abc f5ee febb a647 d53b
000000a0: a672 61bd 676d 9ebd d3ba 243d 7a3b afba
000000b0: e42c 5dbc 9732 3e3d 2c33 dfbb 0ae4 9bbc
000000c0: 4376 b13d cf68 b43b 9cb0 8bbd ef93 793c
000000d0: f3fd 563d 0693 853d d222 503d 3444 72bc
000000e0: 6c5d 3f3d a105 43bd a44a 1d3d 9066 8cbd
000000f0: a368 75bd a4c5 53bc 5a93 303d c384 b93d
00000100: 2bd3 343c 89a4 c7bc b56f 8e3d 5ed9 933d
00000110: 6336 6abd df46 98bc d472 9c3c bcd6 bcbd
00000120: 805f 0a3b a4a9 0a3d 4ae9 9e3d ec00 2e3d
00000130: 846b 88ba 78ef be3c 957e 8dbd fdda 2ebd
00000140: f809 a9bd 289e 373d c3fa 1b3d 412a 133d
00000150: 6497 413d ec4f 893d d2b4 623d 4223 54bd
00000160: 5aae a93d 8b34 1ebd c319 513b cff2 25bc
00000170: 6a67 ef3b 7ec3 bfbc 5c7d 0b3d df86 dbbc
00000180: 6666 323d dc76 f4bc b48b da3c 8500 3f3d
00000190: 7551 0cbd 06cb ddbb 3f91 c03d a56f 32bd
000001a0: bf65 9c3b 47e4 353c 2351 343d ab24 8dbd
000001b0: 084a c3bc e7fb b5bd 96b6 8d3d 3cc9 cabc
000001c0: cb63 6fbc 034f 063d 6516 8b3d 1026 48bd
000001d0: ab14 e7b8 ac56 d8bd 389f b1bc 821c 97bd
000001e0: 195d 0cbd 93fc 6abc 945b 61bc 7f53 553c
000001f0: 0ab5 84bd 40d7 2c3d 864b 4e3d 175a c83b
00000200: 2ba2 9bbb a5ed e5bc 5724 a23c ff02 54bc
00000210: 199d 713d 9916 933d bb0c ddb9 306b 9d3b
00000220: 2bae 1c3c b288 9dbd ca88 b63b 4207 d9bc
00000230: 2a2a c83c 8591 7d3d 8087 423d a5cd 4dbd
00000240: 365b 823c b2ab 1e3c 6420 31bd 6dc1 33bd
00000250: e3d9 5f3d 1246 eb3c 1de7 c73d dbc7 24bc
00000260: 58d8 6b3d 6b68 0fbd 6fc8 e3bc 1399 c13d
00000270: b4e0 16bb c9f0 c5bc 2428 b2bb d3f4 91b9
00000280: d32b c23c 9f5d 15bc 6955 9bbd c9a0 0abd
00000290: 6efd 9f3d d0a5 ec3c 143d 46bc 7090 523d
000002a0: 45c6 043d 95a1 103d 92d4 09bc c2b7 33bd
000002b0: b91d b8bc 6f77 64bd 601d 36bc 5485 ff3c
000002c0: a758 39bd 963e 9ebc 8539 12bd e35b d8bc
000002d0: 2d18 47bb db32 65bc 003e 49bd 66b7 0d3d
000002e0: a9b1 173d 57bc 8cbd 7db7 2e3d 3f1b 8bbc
000002f0: ff85 b0bb abc6 06bd df9d cfbc 8661 923c
00000300: 578b 803d e853 263d d39c 50bb c32e 8cbd
00000310: bca8 21bc d41d 383d 31cc 123d abf5 833d
00000320: 7644 623c 2bb5 8bbd 0f2c 483d ee65 06bc
00000330: 4a65 b83c 1edf 80bd d1a7 a3bb c389 503d
00000340: bb88 92bd 5483 fc3c 6346 923c 40a8 7b3d
00000350: 9411 15bd 22ab 043d c6da a3ba 6635 583d
00000360: f503 ee3c 1eb6 bbbc 899e 3bbd 19b7 c0bd
00000370: 6837 0f3b dde8 7a3d 2528 75bb 1e01 dd3c
00000380: ceb5 edba 4e70 97bd e1ca 6f3a e065 a43d
00000390: 9d0e b0bc ebd1 1f3d 626a 143d 1a2e 7bbd
000003a0: ca4e 513d 97ef a63d 77a1 a5bd 3d6b b0bd
000003b0: a9ac 403d cbf0 7cbc bfeb febc 9cfa 39bd
000003c0: 60c0 343d 14b1 dbb8 de78 403c c206 123d
000003d0: 1c1c bbbc 5de1 fc3c ee5d b33c 6271 61bd
000003e0: fea3 a3bc 87c4 853a 96bf 20bd 28e5 933d
000003f0: 9d35 78bc 1deb 543d d1e9 983d 85de c3bd

head.3.bias f4 [128]
0.0648536 -0.00211556 0.010598794 0.06458084 0.029801834 0.06044434 0.10120757 -0.07870797
0.017444285 0.15341301 0.05068086 -0.028500805 0.014028675 -0.006126081 0.021950372 0.016866699
-0.042183254 0.10909226 0.04706167 0.07938433 0.055364948 0.040846385 0.070482075 -0.035277653
0.039890364 0.08875901 0.14963296 0.03357948 0.080595285 -0.039389502 0.070301875 0.09706025
0.04071183 0.010164843 0.019402105 0.044492405 -0.033048797 0.06776797 0.038070876 0.024042996
-0.005635827 0.08388611 0.035411183 0.007374385 0.066962965 0.07320374 0.08341712 0.15138924
0.08053323 -0.018095206 0.08976371 0.031648938 0.022674143 0.07957692 0.060536645 0.037815277
0.03515526 0.04977559 0.028627621 0.05217216 0.058845848 -0.013046375 0.08390017 0.056022342
0.07513865 0.026620802 -0.03564368 -0.036331538 -0.035654325 0.03212937 -0.037042912 -0.03237501
0.10486386 -0.036004484 0.05144329 -0.009908564 0.015959978 0.031130616 0.08716976 0.044209417
-0.022298524 0.03596593 -0.014454618 -0.022992343 0.031194536 -0.0024678884 0.063472934 0.014047001
0.020066751 0.08437739 -0.023032632 0.10443027 0.097566165 0.06106606 -0.067055084 0.12625866
-0.020654505 0.08017047 0.037114117 0.093970366 0.10953694 0.048757505 0.12459914 -0.0042333407
0.020533236 0.024468228 0.029597204 0.058254365 -0.07994716 0.06512616 0.07209057 0.05468764
0.005414591 0.09299392 0.06398868 0.064712815 -0.03868624 0.090762615 0.050157525 0.06875721
0.06346965 0.043759827 -0.080043785 0.043170772 -0.061828073 0.0061293864 0.09566725 0.046472125
00000000: f7d1 843d 35a5 0abb 90a6 2d3c f642 843d
00000010: fa22 f43c 7c94 773d ea45 cf3d a531 a1bd
00000020: 51e7 8e3c 4d18 1d3e bc96 4f3d 857a e9bc
00000030: 87d8 653c 4bbd c8bb 44d1 b33c 082c 8a3c
00000040: 59c8 2cbd c36b df3d bdc3 403d 4094 a23d
00000050: 5bc6 623d 8a4e 273d e858 903d 4d7f 10bd
00000060: 1464 233d 49c7 b53d 6239 193e a38a 093d
00000070: 240f a53d e356 21bd 6efa 8f3d 86c7 c63d
00000080: 73c1 263d 718a 263c 2af1 9e3c ab3d 363d
00000090: 2d5e 07bd efc9 8a3d 35f0 1b3d d1f5 c43c
000000a0: beac b8bb 7bcc ab3d 510b 113d d3a4 f13b
000000b0: e123 893d d8eb 953d 98d6 aa3d c805 1b3e
000000c0: 9bee a43d 663c 94bc 09d6 b73d 51a2 013d
000000d0: 20bf b93c 39f9 a23d 46f5 773d 31e4 1a3d
000000e0: f6fe 0f3d 7de1 4b3d 7984 ea3c 7ab2 553d
000000f0: 5808 713d 76c0 55bc dad3 ab3d af77 653d
00000100: 4be2 993d de13 da3c 1bff 11bd 61d0 14bd
00000110: 450a 12bd 169a 033d 4fba 17bd a99b 04bd
00000120: ddc2 d63d 7079 13bd 33b6 523d 8857 22bc
00000130: 80be 823c a205 ff3c 0f86 b23d ef14 353d
00000140: 65ab b6bc 0351 133d 10d3 6cbc 705a bcbc
00000150: af8b ff3c 4cbc 21bb 19fe 813d 6425 663c
00000160: 0763 a43c 0ece ac3d eeae bcbc 8adf d53d
00000170: c5d0 c73d 6820 7a3d 2d54 89bd f349 013e
00000180: a333 a9bc 6a30 a43d f904 183d 8973 c03d
00000190: e754 e03d f3b5 473d d52d ff3d d6b7 8abb
000001a0: 5135 a83c 9871 c83c d675 f23c 219c 6e3d
000001b0: 56bb a3bd dd60 853d 39a4 933d 2600 603d
000001c0: e26c b13b 9973 be3d 7f0c 833d 2788 843d
000001d0: 7675 1ebd c0e1 b93d fa71 4d3d 95d0 8c3d
000001e0: 60fc 813d 813d 333d ffed a3bd d6d3 303d
000001f0: 6f3f 7dbd 05d9 c83b 31ed c33d 8e59 3e3d
